Experiments/Data/Pick and Place - Humam25p - E100, C20, EP16, np4, ns0.3, rs9803/agent_weights.pth (torch, 557007 bytes, 8 tensors)

fc1.weight f4 [256, 22]
000000 6d 77 1d 3e 01 95 c6 3b 5f 29 c5 3d 2a 63 9d 3c
       0.15377589 0.006060243 0.096270315 0.019212324
000010 8c bf fe 3a e1 ce 9c 3c fb d2 fc 3c 87 a4 a5 bd
       0.0019435748 0.019141616 0.030862322 -0.08088022
000020 80 38 8e 3c c4 b9 76 be 6c 24 5e bb b0 d0 d0 3a
       0.017360926 -0.24094301 -0.003389622 0.0015931334
000030 51 cb cb bb 3b 17 69 3d 72 a8 c3 bc fc 71 53 bd
       -0.0062193056 0.05690692 -0.023884032 -0.051622376
000040 41 4c a5 3a 7d ba 1e bb 3a 5f 42 bc 4f 38 cb bd
       0.0012611226 -0.0024220042 -0.011863524 -0.099228494
000050 ff ad 24 bc 96 f6 9c bf 40 5b 20 bf ac 54 8e 3d
       -0.0100512495 -1.2262752 -0.62639236 0.06949744
000060 0c fa 07 bf a0 03 9c bc 0d 6f a9 3c ff b3 e1 3d
       -0.53115916 -0.019044697 0.020682836 0.1102066
000070 89 75 ad be d8 f7 4e 3f c7 2a df bd 6c 3b 60 3f
       -0.33878735 0.8084693 -0.10896831 0.8759067
000080 2f 79 2c ba 6e ac bd bb 8e fa 06 bb b3 94 74 bd
       -0.0006579337 -0.0057883775 -0.002059612 -0.059712123
000090 a9 f1 8b bb d3 18 22 3c 2c 0e 94 3b c6 7f 53 3c
       -0.0042707515 0.009893614 0.004518291 0.0129088815
0000a0 ec 36 3c bd 78 26 a8 3d e4 39 1d 3c 52 d4 b1 3c
       -0.045950815 0.08210462 0.009596322 0.021707688
0000b0 2a a5 d0 3e c2 8a ec 3e 0d cf 65 3e 38 42 36 3d
       0.4075101 0.46199614 0.22442265 0.044496745
0000c0 6e b4 2e 3d 6e 60 00 3d e1 7b 02 be 72 9b 02 bf
       0.04265254 0.031341963 -0.12742569 -0.5101844
0000d0 d0 1a ef be 88 7a 08 3f 68 84 b7 3c a3 1a 91 3c
       -0.46700144 0.5331197 0.022402003 0.017712897
0000e0 e6 c4 c2 3c 52 7e 2b 3d a8 44 82 bb a0 de bc 3d
       0.02377553 0.041868515 -0.0039754696 0.0922215
0000f0 6e ed 39 bd 11 64 cb 3c eb 49 38 bd 15 97 36 bd
       -0.045392446 0.024827989 -0.04499237 -0.044577677
000100 99 19 a1 bd 70 dd 93 bf fe 12 f3 3d 56 05 ae 3e
       -0.078662105 -1.1551952 0.11868857 0.33988446
000110 3c 6a 06 bc a4 ff 7f bd 17 cf 26 3c 75 04 13 bd
       -0.008204039 -0.062499657 0.01018121 -0.035892922
000120 3a 83 bf bd 64 ee d0 3e 86 52 8e be 5e 0e ee 3d
       -0.09351201 0.40806878 -0.27797335 0.11623834
000130 8d 5f 29 ba 57 b2 99 3d 62 80 40 bc fb d9 ea 3c
       -0.00064610766 0.07504719 -0.011749359 0.028668394
000140 06 22 93 be 57 ab 22 3e 4f 9a 4f 3c 76 3c fd 3c
       -0.28736895 0.15885673 0.012671067 0.03091262
000150 18 a9 80 3d f6 76 b0 be 34 28 11 be bc 7f 01 3e
       0.06282252 -0.3446576 -0.14175493 0.12646383
000160 df 14 c7 3c 06 b7 5d be 22 73 51 3f f5 45 5d 3c
       0.024301944 -0.21651849 0.81816304 0.013505449
000170 e9 24 06 3d 73 65 dc bd d2 fa bd 3c 4d 92 7b be
       0.032750044 -0.107615374 0.02319089 -0.24567528
000180 f1 32 02 3e f4 c7 3e bf ae b2 e4 3c 5e 34 47 bd
       0.12714745 -0.74523854 0.027917232 -0.048633926
000190 e3 ae 3a 3d af 04 15 be aa df 06 3d bd 12 45 be
       0.04557694 -0.14552568 0.032928146 -0.1924543
0001a0 65 db 41 3d 7e c4 5d 3d 7b 27 64 3d 20 70 98 3d
       0.04732837 0.054142468 0.055701714 0.07443261
0001b0 26 d3 06 3d 66 a6 55 bf 6f b1 97 be ea cc 31 bf
       0.03291621 -0.8345703 -0.2962756 -0.694533
0001c0 35 be 3d 3e 2b ba 4f 3d 92 64 9f bd 31 25 c9 3c
       0.1852959 0.050714653 -0.07782854 0.024553867
0001d0 45 a9 b5 bd cc dc 91 3e 28 25 16 3f fd be b3 3e
       -0.08870176 0.28488767 0.58650446 0.3510665
0001e0 0d be 97 3c 83 3c 24 3c 66 af b0 bb ce be 8f bc
       0.01852324 0.010024193 -0.005392003 -0.017547037
0001f0 95 8c 71 3b 33 ec 92 3d be ce 38 3c 73 6f 9c bc
       0.0036857475 0.07173958 0.01127976 -0.019096112
000200 c7 a1 1a ba 0e 0f 23 3e ee 17 72 3e 1a eb 49 bf
       -0.00058987405 0.15923712 0.23641941 -0.7887436
000210 bc 40 49 3f 38 1c c8 3c 97 66 08 3f e5 9d 79 3d
       0.786144 0.024427518 0.5328154 0.060941596
000220 9f 71 b2 3c 27 57 9f 3c 40 68 4f 3c 7f 0b 96 bf
       0.021782694 0.019450737 0.0126591325 -1.1722258
000230 d4 a3 20 bd 06 87 a9 bf 16 96 46 3c 01 04 b8 3c
       -0.03921874 -1.3244331 0.012120744 0.022462847
000240 68 cd 23 bc ee e2 84 bd 7a 05 59 3c dd fd 06 bc
       -0.009997703 -0.06488596 0.013245935 -0.008239237
000250 74 72 16 bc 2a 6c 11 bc f6 43 c6 3b 71 61 10 39
       -0.009182561 -0.008875886 0.006050582 0.0001376921
000260 60 6b 15 bc 2c 05 0a bd cd f1 98 be 35 dc c6 3e
       -0.0091198385 -0.03369634 -0.2987198 0.3883988
000270 37 6f d7 be 83 9d 6f 3b 8d 38 80 3d 92 b8 01 be
       -0.42077038 0.003656239 0.06260786 -0.12668064
000280 d4 aa 1c 3e 8f b1 69 bd 14 f9 f1 be 64 a1 3a be
       0.15299541 -0.0570541 -0.47260344 -0.18225628
000290 66 b4 6a bc b3 c3 bd 3c eb 64 19 bd 63 81 9a be
       -0.014325237 0.023164606 -0.03744976 -0.3017684
0002a0 86 95 0f bc 7c 82 dc 3d 91 ed 14 bd 1b fe 90 bd
       -0.0087636765 0.107670754 -0.036359373 -0.07079717
0002b0 c6 27 06 3c 9a fb d7 3e 6c 56 44 bd d9 42 80 be
       0.008188194 0.42184144 -0.04793398 -0.25051
0002c0 2c c7 d3 bd 40 3f 11 3e 94 c7 a6 3e 28 e3 80 b9
       -0.103407234 0.14184284 0.3257414 -0.00024583307
0002d0 66 4f fe bb c6 a6 e0 bd 91 c6 8d 3d 39 81 97 3d
       -0.00776093 -0.109693095 0.06922639 0.07397694
0002e0 06 30 58 bb fc 8e 49 bf e8 4e e5 3c e6 20 0f 3d
       -0.0032987609 -0.787338 0.027991727 0.034943484
0002f0 b3 47 94 3c 0d 4d ea 3e e7 72 9b be ef b0 e2 3d
       0.018100595 0.4576191 -0.303611 0.11068904
000300 b5 b6 2e 3c 3d 7d 9e bc 53 92 1f bd 55 a5 f7 3d
       0.010663678 -0.019346828 -0.038957905 0.120920815
000310 c0 28 76 be f4 5b 9b 3d 82 7e ab 3e ee ef 25 bf
       -0.24038982 0.07585898 0.33494955 -0.6481923
000320 27 5d c3 bb ee ca 61 3c 79 c5 9b bd 3e b3 8a 3d
       -0.0059620324 0.013781292 -0.07606024 0.06772469
000330 d7 d5 38 3d 27 0e 53 bf 49 25 52 3f ba fd a0 bd
       0.04512581 -0.8244347 0.8208814 -0.078608945
000340 06 d1 ad ba 0f 96 87 bb 46 ad 1a 3d 95 3d f8 bd
       -0.0013261146 -0.0041377614 0.037762903 -0.12121121
000350 8b 7e 1e 3d 1c bb 5a bc 3b 07 c1 3c 17 63 65 3b
       0.0386949 -0.013350274 0.023563018 0.003500169
000360 8b 72 f9 bc a2 90 38 3e a9 8a af bd 41 05 08 bb
       -0.030450126 0.18023923 -0.08571369 -0.0020755085
000370 05 77 81 3c cb a2 1f 3d 3b 3b c6 3e b8 af 1c ba
       0.015803823 0.03897361 0.38717064 -0.0005977112
000380 37 96 68 3c 64 c7 90 3e 5f ba 88 3e 14 b3 b3 be
       0.01419597 0.28277123 0.2670469 -0.35097563
000390 02 04 76 bd 05 59 10 c0 e3 ca e9 3c 8b d5 04 bc
       -0.060062416 -2.2554333 0.028539127 -0.008107553
0003a0 e1 97 90 bc ee fe 81 3c f4 83 9d 3c b2 05 14 be
       -0.017650547 0.01586863 0.01922796 -0.14455298
0003b0 5c ec 41 bd 67 8e c6 bc 36 3f 80 ba 66 86 11 3e
       -0.04734455 -0.024237825 -0.0009784463 0.14211425
0003c0 a3 ac 77 bb 95 70 ee 3d 24 2f 8f be fe 77 9d bc
       -0.0037792108 0.11642567 -0.27965653 -0.019222256
0003d0 b9 ca e4 3c a8 29 80 3c 16 af 39 bb 31 8e 3b 3d
       0.027928697 0.015644863 -0.002833312 0.0457899
0003e0 1a 1f b0 be 19 a2 cd be b6 cc 8e 3d 63 75 2b 3e
       -0.3439873 -0.40162733 0.06972639 0.16743998
0003f0 1c 22 72 3c 01 3d 68 bc e9 b2 e2 bb 5b 06 df bc
       0.01477864 -0.014174701 -0.0069183004 -0.02722471

fc1.bias f4 [256]
000000 26 3a 27 3f 5a 07 d2 bd c8 96 35 bd 76 d1 3c bf
       0.653231 -0.102553084 -0.04433325 -0.7375711
000010 b5 3b 21 bf 4b 00 e2 bd f4 31 b0 3e d9 23 3d bf
       -0.6298173 -0.11035212 0.3441311 -0.73882824
000020 c6 f6 26 bf 68 6c b1 be fd 25 dc 39 6a 51 df be
       -0.65220296 -0.3465302 0.00041989973 -0.43616802
000030 b9 56 44 bf 78 d0 ce be 8d ed 10 bf 33 9d 3a 3e
       -0.7669483 -0.40393424 -0.56612474 0.18224029
000040 07 29 06 3f 8a 44 a4 bf 38 0b 1e be 2d 8d 2d bf
       0.5240635 -1.2833416 -0.15433967 -0.6779354
000050 7a d7 9c bf 52 ff 13 be ff 17 71 bf 55 01 66 bf
       -1.2253258 -0.14452866 -0.9417724 -0.8984578
000060 cd 58 b2 be 0d 21 46 bf 5e 0f 31 be 4a 39 9d be
       -0.34833375 -0.7739418 -0.17291018 -0.3070777
000070 3b af d9 3c 67 5b d5 be 4e 47 18 bf 23 d4 67 3e
       0.026572814 -0.41671297 -0.594838 0.22639517
000080 58 38 09 bf 59 9e 6f bf 4f 37 88 be 90 8e d8 be
       -0.536016 -0.93600994 -0.26604697 -0.42296267
000090 68 6a dc be c3 06 ad 3c 6e 6c de be ab 53 22 be
       -0.43049932 0.021121388 -0.434421 -0.1585223
0000a0 31 93 23 bf 40 25 66 bf 3c ff 33 bf 16 34 81 bf
       -0.6389647 -0.8990059 -0.7031133 -1.009402
0000b0 09 15 74 bd 47 14 c9 be e9 d5 0b bf dc 09 83 bf
       -0.059590373 -0.39273283 -0.54623276 -1.0237384
0000c0 33 f2 8d bf 99 c9 2b 3e 3b e7 ef be 17 a0 24 bf
       -1.1089538 0.16776122 -0.46856102 -0.6430678
0000d0 ba c3 c9 be 3d 25 7a bf c4 9c 47 bf 5a 51 49 bf
       -0.3940714 -0.9771307 -0.7797358 -0.7863976
0000e0 9b 55 2c bf 83 77 af bf 26 24 17 bf 57 c0 10 bf
       -0.67318124 -1.3708347 -0.59039533 -0.5654349
0000f0 40 d4 85 bf 02 10 5e be 78 a8 55 be ea 8c 4e 3e
       -1.0455399 -0.21685794 -0.20865047 0.20170942
000100 f5 cc e1 bd d7 32 82 bd a1 80 a8 bf 15 30 ac be
       -0.110254206 -0.06357353 -1.3164254 -0.33630434
000110 5f 81 ce be 95 42 64 bf 2c ed 3f 3e d4 b8 60 be
       -0.40333077 -0.89164096 0.18742818 -0.21945506
000120 78 e3 a5 be db f2 9b bf 19 25 a3 3d 32 ca 2c bf
       -0.32400107 -1.2183489 0.0796606 -0.67496026
000130 b7 7d c6 3e 32 42 2c bf 1b 09 12 bf 9b ff 94 be
       0.38767788 -0.67288506 -0.57045144 -0.29101261
000140 32 e3 a9 3d 30 c3 d2 be 4d 68 81 bf d0 e5 a7 3c
       0.08295287 -0.4116454 -1.0109955 0.020495325
000150 af 24 12 be ae cc 83 bd f3 d9 bb 3e 60 8d e2 3e
       -0.14271806 -0.06435524 0.3668972 0.44248486
000160 9a 90 24 bf 75 29 14 be b4 d9 2d be 8b ec 96 bf
       -0.64283144 -0.1446894 -0.16977578 -1.1790937
000170 c5 26 c9 3e 9a 6e 93 3e cf 05 2d bf d6 3d 51 be
       0.3928739 0.2879532 -0.6758699 -0.20433745
000180 93 e8 e4 be 11 5d ca be 0b 7e a0 bf 3f d2 de bd
       -0.4470869 -0.3952413 -1.2538465 -0.10879945
000190 12 da 7d bf 73 50 f1 be 27 e2 07 bf fd f7 61 bf
       -0.99160874 -0.4713169 -0.53079456 -0.88269025
0001a0 76 31 92 3e c5 44 78 3d 67 f6 dd 3e 7f 0e b6 3e
       0.2855336 0.06061246 0.43352053 0.35557935
0001b0 1d 03 e8 be ad f7 88 3e 4a 07 91 bf e8 49 1a bf
       -0.45314875 0.26751462 -1.133035 -0.6026902
0001c0 a9 d3 db be 87 a7 18 be 61 b5 18 bf 49 4b fb bd
       -0.4293492 -0.14907657 -0.5965176 -0.12270219
0001d0 5c 50 b0 be e5 5f 89 be f9 0a c5 be 66 5f 0d bf
       -0.3443631 -0.26830974 -0.38484934 -0.5522369
0001e0 68 69 9c 3e cb 90 0b bf cc e4 88 be 82 3b 0a bf
       0.3054917 -0.5451781 -0.26737058 -0.5399705
0001f0 50 d2 ee be bd ab 34 be a0 33 f0 3d d3 09 20 bf
       -0.4664483 -0.17643638 0.11728597 -0.6251499
000200 f4 0d 9b bf 03 82 88 be ae 4d 04 bf d2 59 e2 bf
       -1.2113633 -0.2666169 -0.5168103 -1.7683661
000210 f1 8b fb be 20 e8 41 bf 78 3f a0 bf 90 f6 06 bf
       -0.49130204 -0.7574482 -1.2519369 -0.52719975
000220 b1 7e 8a bd af 30 67 bf fb 00 dd 3d 3e ea b6 be
       -0.06762446 -0.9030866 0.10791203 -0.35725588
000230 d3 98 40 bf 3e e2 3f be 21 d4 a0 bd c3 be 75 3c
       -0.7523319 -0.18738648 -0.078529604 0.014999094
000240 cb 76 46 bf 68 23 eb 3e 16 9e 7a bd aa 9a ea bd
       -0.77525014 0.4592545 -0.06118592 -0.11455281
000250 ba b2 56 be b1 b7 7b 3e cf a3 2c bf 8f 03 62 bc
       -0.20966616 0.24581791 -0.6743745 -0.013794794
000260 50 aa 0e bf 1f ac 4d bf 6a 43 a1 bf b3 79 7b bf
       -0.55728626 -0.8034076 -1.2598698 -0.98232573
000270 e2 e4 42 bf 7e 21 87 3e 9d 9d 33 bf 15 b3 0f be
       -0.761305 0.2639274 -0.70162374 -0.14033158
000280 55 98 a7 bd 2a a1 5a be e2 4c cb be c4 a0 48 be
       -0.08183352 -0.21350542 -0.39707094 -0.19592577
000290 88 54 4f 3d e9 58 0b bf 69 c5 9a bf 39 30 89 be
       0.050617725 -0.5443254 -1.2091495 -0.26794603
0002a0 16 bf 95 bc 32 86 64 be 9c 03 bd be fb 24 26 bf
       -0.018279593 -0.22316816 -0.36916816 -0.6490018
0002b0 77 24 38 bf 8e b7 25 be fe 12 e7 bd 15 27 e3 bc
       -0.7193064 -0.16183302 -0.11282919 -0.027728597
0002c0 77 49 45 be 41 b4 d2 be 68 62 c9 bd 24 92 16 bf
       -0.19266306 -0.41153148 -0.09833223 -0.5881674
0002d0 1b 8f f3 be 4f 51 55 bf 1c a3 a9 3d d4 7a e2 be
       -0.47570118 -0.8332719 0.08283064 -0.44234335
0002e0 de 4e 9e bd 18 68 b1 3e 38 11 19 be ab ff 53 bf
       -0.077298865 0.3464973 -0.14947975 -0.82811993
0002f0 60 04 42 3e 78 6d 43 bf aa 78 ba bc c2 0e e9 be
       0.18946981 -0.7633891 -0.022762615 -0.45519072
000300 59 38 36 be f7 22 97 bf ee a4 69 be eb a2 22 bf
       -0.17794932 -1.1807545 -0.22816822 -0.63529843
000310 47 da 41 3e 15 0c 4e bf 98 4c 44 3d f1 e0 29 be
       0.18930922 -0.80487186 0.047924608 -0.16589715
000320 17 0c 2a be 98 76 04 bf b6 f9 9b be f9 64 2b bf
       -0.16606174 -0.5174346 -0.30463952 -0.6695095
000330 01 2c cd 3e a8 fb 5a bf 91 e6 02 3f 60 a1 47 be
       0.40072635 -0.85540247 0.51133066 -0.19495153
000340 f0 c9 aa bd f3 84 93 be c2 8f 22 bf 7a 31 85 be
       -0.08339298 -0.2881237 -0.63500607 -0.2601431
000350 8f ca 68 bf 3b a5 08 bf 06 19 ef 3e 30 27 29 bf
       -0.9093408 -0.5337712 0.4669878 -0.6607542
000360 59 d5 4a be 58 b2 42 bf 77 df c0 be e9 b1 7b bf
       -0.19807948 -0.7605338 -0.3767049 -0.98318344
000370 53 98 9e be 55 ec 06 bf 97 d5 79 bf a6 26 d4 bb
       -0.3097559 -0.52704364 -0.9759154 -0.006474334
000380 cf 88 d0 bd 3c 7c 95 3e 85 b1 5b bf 90 2a 36 bf
       -0.10182344 0.29196346 -0.8581775 -0.71158695
000390 e0 1e 6c be 88 2f 82 bf 55 ec 86 bf d5 9c ec 3d
       -0.23058653 -1.0170755 -1.0540873 0.11553351
0003a0 9f 39 40 bf b0 e7 3b bf 23 b5 25 be 64 b2 58 3e
       -0.7508792 -0.734004 -0.1618238 0.211618
0003b0 a4 e1 c7 bf 49 88 d9 bd 4f 77 31 bf 6d f4 52 be
       -1.5615735 -0.106216975 -0.69322675 -0.20601054
0003c0 38 0d 0e be ee d5 80 be 94 b5 e7 be c3 a9 c8 3c
       -0.1387223 -0.25163215 -0.4525572 0.024495011
0003d0 44 f7 83 3e f1 f0 fd be c9 47 99 be a9 da 13 bf
       0.25774586 -0.49597886 -0.2993758 -0.57755524
0003e0 0e 4d fc 3e 1f b2 08 bf 1b 67 38 3e ff b7 de be
       0.49277538 -0.5339679 0.18008082 -0.43499753
0003f0 60 11 2b 3e 3f f0 19 3e ef 2f 6c be c0 d4 f7 be
       0.16705847 0.15033053 -0.2306516 -0.48404503

fc2.weight f4 [256, 256]
000000 46 55 3b be db 00 a0 bd 97 6c ca be f9 cc dc 3e
       -0.18294248 -0.07812663 -0.39535972 0.43125132
000010 13 57 bb be 7c 06 85 3e 37 39 8c 3e d9 46 c7 be
       -0.3658987 0.2598151 0.273874 -0.3892124
000020 32 1c dd 3e 72 fa 41 3d 47 dc 1c 3e 2c f4 41 3e
       0.43185574 0.047357984 0.15318404 0.189408
000030 e5 2a c0 be db d4 3b 3e d3 19 cd be 98 7b e9 be
       -0.37532726 0.18342917 -0.40058765 -0.45602107
000040 f4 3c 93 be 5c fd c3 3e 73 bd 9a bd 73 6f 94 3d
       -0.2875744 0.38279235 -0.07555666 0.0724782
000050 45 eb f7 3e a4 36 54 bd 63 b5 48 3e c6 b0 25 3d
       0.48421684 -0.05180992 0.19600444 0.040451787
000060 32 ab 44 be 15 02 37 3f 27 6f d5 bd eb ad 7f 3e
       -0.19205931 0.7148755 -0.10421591 0.24968688
000070 e7 65 16 be 32 d8 2d bd 29 d4 15 3e 4d 96 96 3e
       -0.1468731 -0.042442508 0.14631714 0.29411545
000080 42 3d 54 3e c3 45 99 3a b8 e9 67 3e 1c ad 61 3e
       0.20726493 0.0011693764 0.2264775 0.22038692
000090 1c 34 1c 3e 86 a2 d5 3e 76 a1 90 3e 0d 0d c4 bd
       0.15254253 0.41725558 0.28248185 -0.09572802
0000a0 c4 32 57 bd 53 c0 dc 3d 5e 5d 2c bf 66 1c 2f 3f
       -0.05253865 0.107788704 -0.6732997 0.6840271
0000b0 6c 8c 17 be a6 c6 80 bd ab a8 0a bf be d4 ac 3f
       -0.1479966 -0.06287889 -0.54163617 1.3502424
0000c0 c5 5f 78 3f 07 c2 32 bf 24 96 e1 be e1 61 32 bf
       0.9702113 -0.6982731 -0.4405986 -0.696806
0000d0 3a db cc 3e b5 14 5f 3e 5e 97 52 be 52 41 48 3d
       0.40011007 0.21785243 -0.20565554 0.04889042
0000e0 09 0c b5 3e 7f 58 05 3f 8c de 06 3f d6 96 3b 3f
       0.35360745 0.5208816 0.5268333 0.7327703
0000f0 f6 cd 30 3e ed 77 2d 3f 82 61 46 be 6e 00 f1 bd
       0.17266068 0.6776112 -0.19373134 -0.1176766
000100 d3 a8 8b be e6 90 58 be b5 6f 28 be e3 7d af be
       -0.2727724 -0.21149024 -0.16448863 -0.3427573
000110 4f af 7b 3e 25 83 92 bd af 90 84 3e c1 8c b8 3d
       0.24578594 -0.0715392 0.25891635 0.09011222
000120 cf c4 80 3d d7 4d 02 3f 68 3e 3a 3e 00 a7 60 3c
       0.06287538 0.50900024 0.18187869 0.013711691
000130 a6 da f3 be e2 cf da 3d 2c 08 f1 3e eb 40 2f 3e
       -0.47627753 0.10684182 0.47076547 0.17114608
000140 4f 6e 8c 3d 00 81 bf bd 0f 21 30 3d d1 b5 05 be
       0.06856977 -0.09350777 0.043000277 -0.13057639
000150 44 4e 71 3e b2 43 9e be be a4 a0 be 61 5b 9b be
       0.23565012 -0.30911022 -0.31375688 -0.30343154
000160 5d 02 98 3f 39 09 cc be b0 3e 5c 3d ab 64 20 3e
       1.1875721 -0.39850786 0.05377072 0.15663402
000170 08 4c 32 bf 27 a2 6c be af 7f f0 3e e8 49 96 be
       -0.69647264 -0.23108731 0.46972415 -0.2935326
000180 de dc 2f bd e9 a1 a5 be 3b 5f 23 ba 14 89 15 3e
       -0.042935245 -0.3235009 -0.0006232147 0.14603072
000190 c3 1e 92 3e e8 4e 80 3e 90 26 75 be c5 b6 ab 3e
       0.28539094 0.250602 -0.23940492 0.3353788
0001a0 c4 4e 70 bd f6 0b 32 be 9b 89 06 bf fe ac 3f be
       -0.058668867 -0.17387375 -0.5255372 -0.18718335
0001b0 5f a8 08 3f ac e5 34 bf 84 52 13 3f 0c 9e 7f 3d
       0.53381914 -0.7066295 0.57547784 0.062406585
0001c0 db 77 08 3e f4 e4 47 3d 75 47 a3 be a1 4b 80 3d
       0.13326971 0.04880233 -0.31890455 0.06264425
0001d0 a2 93 b0 3d 48 c5 73 be 9c 5d b0 3e 1b d1 2d be
       0.08621909 -0.23805726 0.34446418 -0.16974299
0001e0 71 46 45 bf ec 21 73 3d fb f5 a1 3e 51 02 a8 be
       -0.7706061 0.059358522 0.3163298 -0.32814267
0001f0 36 3a 61 3e 63 15 25 3e 2e b6 19 3e f6 2f 9d bf
       0.21994862 0.1612144 0.15010902 -1.2280262
000200 9c ce 16 3f 41 b0 c2 bd 35 9a 26 be f2 ce a6 3e
       0.5890901 -0.09506274 -0.16269763 0.32579762
000210 04 c8 98 3e 77 d3 c3 3e 3a cf 92 be c4 75 49 be
       0.298401 0.38247272 -0.28673726 -0.1967383
000220 3c 22 99 be 86 41 43 be d7 48 78 3e 4c f7 fa 3e
       -0.2990893 -0.19067964 0.24246536 0.49016798
000230 1a d0 dd 3e 29 da c9 be bb 27 c4 be 02 c5 d7 be
       0.4332283 -0.39424255 -0.38311562 -0.42142493
000240 1b 9e fd be 42 3e af bf 19 cf 94 be 09 be 98 3e
       -0.49534687 -1.3690875 -0.29064253 0.29832485
000250 82 cd 96 3e 1c 02 e4 3d e2 c6 6b 3d 58 b0 08 3e
       0.29453665 0.11133215 0.057562716 0.1334852
000260 62 b9 d6 3c 41 f0 2a 3d 19 db 77 3f 4e e7 f1 3e
       0.026211444 0.04173303 0.9681869 0.47246784
000270 b8 56 ee 3e e5 d3 20 3e ca e4 2e bd 79 b8 a3 bd
       0.46550536 0.15705831 -0.04269866 -0.0799417
000280 75 1c 28 3d e4 e6 4c be e3 0c 13 bf da 78 0f bf
       0.041042764 -0.20009953 -0.5744154 -0.5604378
000290 62 d2 d5 3c a5 53 82 bd 0a cc 22 3f 2d 4e dd 3e
       0.026101295 -0.0636361 0.6359259 0.43223706
0002a0 98 99 f3 3d a2 9c ab 3d 50 27 bc 3e 2c 60 c4 3e
       0.1189453 0.08379485 0.36748743 0.38354623
0002b0 e0 8f cc 3d c2 d6 df be 53 f3 9b be 95 c2 b8 3c
       0.099883795 -0.43718535 -0.3045908 0.022553721
0002c0 07 46 13 3d 08 e3 92 be 6e 89 c4 3d 97 80 4b bf
       0.035955455 -0.28688836 0.09596525 -0.7949309
0002d0 8f b8 25 bf d1 19 03 3f 49 48 6c be 93 a0 ef 3d
       -0.6473474 0.5121127 -0.2307445 0.11700549
0002e0 7d e7 df 3d af ae a4 bd e3 1a a7 3e b5 7f 78 3e
       0.10932825 -0.08041131 0.326377 0.24267466
0002f0 dd f8 a3 be 19 87 e9 bd 02 03 3b bd c6 be b4 3e
       -0.32025805 -0.11402721 -0.045657165 0.353018
000300 08 37 53 3c e2 24 af 3e 52 85 db 3d 3e bf 43 bf
       0.012891538 0.34207827 0.10718788 -0.7646369
000310 75 6b 51 be c0 4a 0d 3f a0 6a 1b be 9e 90 3b be
       -0.20451148 0.55192184 -0.15177393 -0.18316886
000320 50 cd e9 bb 55 4a cf be 82 2b c2 bc 41 44 e7 bc
       -0.007135071 -0.40486398 -0.023702387 -0.028230788
000330 44 03 8c 3e 81 a6 2e 3e b3 00 57 bd f4 7c 09 3d
       0.2734624 0.17055704 -0.0524909 0.03356643
000340 5a 08 e3 bd 7b 3d 90 3e 96 9a 80 be 13 e3 8e 3e
       -0.11085577 0.28171906 -0.2511794 0.2790762
000350 62 a6 2c 3e a7 7e 08 bf 2f 01 77 bd 10 7d 47 3e
       0.16860345 -0.53318256 -0.060303863 0.19481301
000360 50 f6 2c 3e a9 3d 7e be 2f 68 c0 be 76 32 d8 3e
       0.16890836 -0.24828209 -0.37579486 0.42226
000370 41 ef 94 be 4e 49 b8 3d 2a dd 86 be a9 82 11 be
       -0.29088786 0.08998357 -0.2634061 -0.14209999
000380 e7 72 83 3e d7 f9 1a bf cd e3 da 3a 1f 31 25 3f
       0.256736 -0.60537475 0.001669997 0.6452808
000390 f0 96 1d bd df 60 d4 3e 3b fc 28 be b5 25 ff be
       -0.038474023 0.41480157 -0.16502468 -0.49833456
0003a0 ab 35 1e 3f c6 b2 e8 3e bd 60 a9 be c4 61 e7 be
       0.6180064 0.45448893 -0.33081618 -0.45191777
0003b0 17 1e 93 3e 00 d4 99 3e 19 34 1d be 84 f0 3e 3e
       0.28733894 0.30044556 -0.15351905 0.18646437
0003c0 5b e0 ab be a5 0d 94 bd 62 81 bb 3d 7e 3b 14 3d
       -0.33569607 -0.07229165 0.09155537 0.03618955
0003d0 00 3e 97 be 6a 5e 0a bf e1 00 80 3e 09 3c 18 3f
       -0.2953949 -0.54050314 0.2500067 0.59466606
0003e0 22 ec d2 be e2 d8 63 be 0a e7 9c be 6e d8 4f 3e
       -0.4119578 -0.22250703 -0.3064502 0.20297405
0003f0 6f ac 32 be e6 74 98 3c b2 8f d6 3e ae f2 da 3d
       -0.1744859 0.018610429 0.41906506 0.10690819

fc2.bias f4 [256]
000000 11 90 9e bf 46 d6 4e bf d7 37 c1 be 77 28 53 3e
       -1.2387716 -0.80795705 -0.37737915 0.20620905
000010 3b d9 86 3e 6e 47 d1 be 3c b8 f1 3c e7 51 c9 bd
       0.2633761 -0.4087481 0.029506795 -0.09830075
000020 05 00 fa bd 85 1c b7 bd b8 92 a8 3e bc 39 f8 3e
       -0.12207035 -0.089409865 0.32924438 0.48481548
000030 82 36 85 bd 80 91 a6 3d 8d ad 14 bf 6e ac a9 be
       -0.06504537 0.08133221 -0.5807732 -0.33139366
000040 50 bd 5a be 7a 2e 2d 3f 67 0b d4 be d5 ce 70 bf
       -0.2136128 0.6764904 -0.4141495 -0.940656
000050 21 37 d8 bf c8 06 8f 3e 78 10 80 bf e3 fa 80 3d
       -1.6891824 0.2793486 -1.0005026 0.06297853
000060 46 26 d4 bd dc a8 38 be bd 1e f1 bc 35 81 28 3e
       -0.103588626 -0.18033165 -0.029433602 0.16455539
000070 91 06 46 bd b6 7a 6d be 3d 70 2c 3e a5 51 80 bc
       -0.048346106 -0.23191342 0.1683969 -0.015663931
000080 e1 48 f8 3c 0e 9a c2 bc 54 b5 d2 3e b0 e7 ac bd
       0.030308189 -0.0237551 0.41153967 -0.084426284
000090 a7 2c a5 3e 02 d4 08 be 50 88 1c bd 17 d2 8e be
       0.3226063 -0.13362125 -0.038215935 -0.2789466
0000a0 71 a1 fb 3e 3f 8a b8 3d de 58 9d 3d a0 1b 98 3e
       0.49146608 0.09010743 0.07682966 0.29708576
0000b0 d5 29 af be 76 21 94 3e 71 9d 30 be 53 1e 7f bd
       -0.34211603 0.2893178 -0.17247559 -0.06228478
0000c0 82 ff d7 bc cb bc 3b bd 33 4b d0 bd 09 69 4f bd
       -0.026366953 -0.045834344 -0.10170593 -0.05063728
0000d0 cc 9d 0f 3e f7 73 2e bf 66 61 aa 3e d8 ba 04 bf
       0.14025038 -0.681457 0.33277434 -0.518476
0000e0 b3 f9 66 3b 76 77 72 bf 74 46 cb be a7 63 a1 bf
       0.0035244047 -0.9471353 -0.3970219 -1.2608536
0000f0 d2 a3 32 be 0d 5b f4 3c cb 61 e5 3e b0 f9 a9 bd
       -0.17445305 0.029828573 0.44801173 -0.08299577
000100 55 40 71 bf df e4 4a bc cb f0 cf 3e 9e 24 dd bd
       -0.9423879 -0.012383669 0.40613398 -0.10798
000110 08 fb 37 be 91 6f e7 be d2 6a 43 3e 20 7d af be
       -0.17966855 -0.45202306 0.19083717 -0.3427515
000120 bd 6c 11 be df a1 50 be 22 65 a3 3c d8 4e bd 3e
       -0.14201637 -0.20374249 0.019945685 0.36974216
000130 07 0a c9 3e 27 4c d7 3e b8 40 0d 3e 32 53 cb 3c
       0.39265463 0.42050287 0.1379422 0.024819944
000140 64 e2 e1 3e 5e 67 7d 3d 64 ff 2f 3e 25 cb 80 be
       0.44118035 0.061866157 0.17187268 -0.25154987
000150 19 4c 33 bd c5 de 4d bf 33 a0 93 3e b9 2b 8e be
       -0.043773744 -0.80418044 0.2883316 -0.27767733
000160 b1 c0 91 be d2 2e 71 be 0b 8f bf bd 9b 8f 54 bc
       -0.28467324 -0.23553017 -0.09353455 -0.012973691
000170 de 6a 8f be cd cf 1c 3d 26 f5 90 bd a2 85 ce 3b
       -0.2801122 0.03828411 -0.07078008 0.0063025514
000180 55 1e 5a be 0c 04 2f 3e b1 71 83 be 79 3a 6b 3e
       -0.21300633 0.17091388 -0.25672677 0.22971524
000190 0e a0 02 3f 22 99 30 bc 90 04 b7 3d a1 75 95 bd
       0.51025474 -0.010778697 0.08936417 -0.072978266
0001a0 1d c4 1c bf 36 6c 20 bf 86 13 7a 3e 60 a8 2c 3d
       -0.61236745 -0.62665117 0.2442151 0.042152762
0001b0 83 05 22 bf a8 dc a2 3e f3 cb 09 3c 04 65 10 3e
       -0.6328966 0.31808972 0.008410442 0.14101034
0001c0 ad 8c 83 3c 48 a7 c3 3e f8 48 0c 3e 51 d7 ca 3e
       0.01605829 0.38213563 0.1369971 0.39617398
0001d0 25 d2 7b bd 27 26 b1 3e 32 43 0e 3e f2 a4 0c 3e
       -0.061479706 0.3459942 0.1389282 0.13734797
0001e0 e1 cc 42 3d 1d e9 a2 bd 83 3f c8 3d 19 e8 90 be
       0.04755867 -0.07954619 0.09777739 -0.28302076
0001f0 92 14 14 be 5d d0 85 bf 22 ec 36 3a c2 e9 98 bd
       -0.14460972 -1.0454212 0.00069779356 -0.07466461
000200 dc 9e bc be 38 ca b2 bd f2 6a 54 bc 73 9a 06 bb
       -0.3683995 -0.087299764 -0.012964951 -0.0020538836
000210 ed 94 c1 3e 77 9d 02 bf 06 a7 c6 be bb b2 b0 3e
       0.37808934 -0.5102152 -0.38799304 0.3451136
000220 5d d2 00 3e c4 24 b6 3e 4e 44 9f 3e 8e 1e be 3e
       0.12580247 0.35574925 0.311068 0.37132686
000230 94 3f 44 b9 7a e9 3c 3a f6 3b bb be 1e b9 d9 3e
       -0.00018715701 0.00072064216 -0.36569184 0.42524046
000240 0d d3 41 3c 9a 93 83 be c7 76 d5 3e 5d 1b cb 3c
       0.011830104 -0.2569855 0.41692182 0.024793321
000250 68 2b 7b 3e 60 05 4b be 30 a8 31 be 0d 86 67 3e
       0.24528277 -0.19826269 -0.17349315 0.2260973
000260 8f 6d 39 bf fd e1 6f be ca 03 ec 3b ca 0b d8 be
       -0.724328 -0.23426051 0.0072026 -0.42196494
000270 4b 87 bc 3d 66 76 ae bd 70 ac da 3e cd d8 78 3b
       0.092054926 -0.085186765 0.42709684 0.003797102
000280 e6 7a ac bc 7b d6 ab bd 73 a3 4d 3d 00 c6 ee bd
       -0.021054696 -0.08390518 0.050204705 -0.11658859
000290 ab f8 c0 bc 74 33 9d 3e 4d ee 4e bf 7d 6d 09 be
       -0.023556074 0.30703318 -0.8083237 -0.13420673
0002a0 06 b9 de 3e c1 42 98 3d d7 50 ec 3e b6 ba 9c 3e
       0.43500537 0.07434607 0.46155426 0.306112
0002b0 85 e6 a3 3c d8 fd b5 bd a0 9d d6 bf 10 a1 af bd
       0.020007381 -0.088863075 -1.6766853 -0.08575642
0002c0 37 88 6b 3d 08 db 9d bd 39 0e 20 3d b9 b4 13 bf
       0.05750295 -0.077077925 0.039076064 -0.57697636
0002d0 95 16 1f 3e 28 30 3c be ea 2a 21 be e8 af 23 be
       0.15535958 -0.18377745 -0.15739027 -0.15985072
0002e0 06 ee 95 bd e6 d4 ad 3d 42 77 5a be 3e fe 77 bd
       -0.0732079 0.08487873 -0.21334556 -0.0605452
0002f0 d0 aa d2 bc 2a 09 f7 3d e5 6c 09 bf c5 6a 7c be
       -0.025716215 0.12062295 -0.53681785 -0.24650104
000300 35 92 78 bf 52 2d dc 3e c4 05 2e 3d bd c3 6e bc
       -0.97098094 0.43003327 0.042485967 -0.014573035
000310 d0 f3 37 be d6 72 9a be 53 75 0e bf be d0 98 bc
       -0.17964101 -0.30165738 -0.5564777 -0.018654224
000320 c8 2f 9c bd d8 32 2c 3e f5 8c 66 bc c7 a5 36 3e
       -0.07626301 0.1681627 -0.014071693 0.17836677
000330 b1 90 b5 be 5b e2 98 be e7 78 d8 be 9b 0b 4f bd
       -0.35461953 -0.29860196 -0.4227974 -0.050548177
000340 54 0e 38 bf 85 36 1b be 72 f8 36 3e 76 c0 f7 bd
       -0.71896863 -0.15157516 0.17868212 -0.12097256
000350 1e 35 27 bf 3a f3 e7 be f8 ac 8f bd 1a c1 b3 3e
       -0.65315425 -0.45302755 -0.07015413 0.35108262
000360 21 5a 23 bd 7e f0 45 bd f2 48 ab bd fa c2 cf 3d
       -0.039880875 -0.048325054 -0.083635226 0.10144611
000370 59 2b 09 bd 21 20 2e bd 03 3a 0c 3e dd 38 03 be
       -0.033488605 -0.04251111 0.13694005 -0.1281466
000380 df d8 13 bc c3 dc 24 3d b4 8f 81 3c 5d 9e e8 bd
       -0.009023874 0.040249597 0.015815593 -0.113583304
000390 63 e8 68 bf 6e 36 c0 bf 85 c5 03 be cc 51 8a 3d
       -0.90979594 -1.5016611 -0.12868316 0.06753883
0003a0 31 c7 18 bf a7 c3 0e bb 0a 66 4a be 58 75 d1 3c
       -0.5967894 -0.0021784098 -0.19765487 0.02556865
0003b0 96 29 dd 3c 9e 00 47 bb 44 cd 8a bd d3 87 9f 3e
       0.026997369 -0.0030365358 -0.067774326 0.31158313
0003c0 c4 3e 46 bd a0 56 1d bd f2 f7 53 3c 0c 41 bf bd
       -0.0483997 -0.03841269 0.012937533 -0.093385786
0003d0 e8 f5 8e 3e 67 f6 0e 3f 5b 09 dc 3e bd b3 56 be
       0.27921987 0.5584473 0.42975888 -0.20967002
0003e0 38 98 84 bf 28 e7 95 3e 5b 40 80 3e 76 24 a3 bd
       -1.0358953 0.2927792 0.250491 -0.07965939
0003f0 6a 7c 15 3f eb 43 b9 bd 4a 8e d4 bf 54 3a a4 bd
       0.58392966 -0.090461574 -1.6605923 -0.08018938

fc3.weight f4 [256, 256]
000000 0c ef 10 bf 9b c6 50 3c fd 87 ec 3c 36 cd 38 3e
       -0.56614757 0.012742664 0.028873438 0.18047032
000010 52 e1 84 be 8a 7f b7 be 53 dd 96 3c 1b 01 87 bf
       -0.25953156 -0.35839492 0.018416082 -1.0547212
000020 3a bb 61 3e 16 26 68 3d bd 63 d1 3e 0e 8e 52 3c
       0.22044078 0.056676947 0.40896407 0.012851251
000030 65 8a 80 3d c5 37 87 bf b1 8c 9d be 6a 1b 27 bf
       0.06276397 -1.0563895 -0.30771402 -0.65276206
000040 89 a2 8d be ac c2 49 be ae e8 01 bf cc 38 80 3d
       -0.27663067 -0.19703168 -0.50745666 0.06260833
000050 8a 3f 2d be a7 0c 0c bf 37 ce 28 be 59 93 1c bf
       -0.1691877 -0.54706806 -0.16484915 -0.61162335
000060 46 2b 31 3d b0 d3 d4 bd 2d 24 fd be 55 74 96 bd
       0.04325416 -0.10391939 -0.49441662 -0.07346407
000070 9d 86 9e bd 48 2b 85 bd b4 57 ea 3c f4 4f 33 bd
       -0.07740519 -0.06502396 0.028606273 -0.04377742
000080 d3 1b 17 bf ef ef 69 3d 99 17 81 bd b9 04 24 bd
       -0.5902683 0.057113584 -0.06303329 -0.040043566
000090 11 bc ce bf 28 e5 b4 be 17 d6 2d 3d 6f f9 a3 3e
       -1.6151143 -0.35331082 0.0424405 0.3202624
0000a0 27 60 db be b4 79 a4 be ed ca ab be d0 33 6a be
       -0.42846796 -0.32124102 -0.33553258 -0.22871327
0000b0 c2 33 8c be 0d aa d5 be 2b 91 9f be 7f 22 7c 3d
       -0.27383238 -0.417313 -0.31165442 0.061556336
0000c0 2d 3f 3c 3c 7f 79 3b bd 2a a6 a3 bd 00 65 88 3d
       0.011489672 -0.045770165 -0.07990678 0.06659889
0000d0 93 bb 64 bf 67 e6 be be 6c 1b 03 bf b6 4e bc be
       -0.89348716 -0.37285158 -0.5121372 -0.36778802
0000e0 8a d4 4d be c1 f2 be 3e d4 a3 44 3e 09 03 09 3e
       -0.20100608 0.37294582 0.1920312 0.13380064
0000f0 1b c6 e0 be 5e 42 fd bd e3 43 1d 3e c5 c6 ca bd
       -0.43901142 -0.12366174 0.15357928 -0.099011935
000100 a9 d2 a4 3d c1 67 a3 3d 96 26 fe 3e be 76 f7 be
       0.08047993 0.07978774 0.49638814 -0.4833278
000110 b6 1f e6 be e4 fa a2 bd 7c fb 9d be 60 e8 be be
       -0.4494607 -0.0795801 -0.3085593 -0.37286663
000120 38 15 6e bd 4f 67 04 bf c5 c8 56 bd 8f e8 ae 3e
       -0.058125705 -0.51720136 -0.052437562 0.34161803
000130 9f fb 5e be 7d 76 a2 bd 65 49 bc 3d 50 a0 40 bf
       -0.21775673 -0.07932756 0.091936864 -0.7524462
000140 91 90 bf 3e 91 6e 45 3c 03 10 8b bd 68 7c 3d bd
       0.37414983 0.012050287 -0.06790163 -0.04626122
000150 27 26 4d 3d c4 cc d3 3c 83 6f e3 be 03 73 91 3e
       0.050085213 0.025854476 -0.44421014 0.2840806
000160 46 ef 74 3b ca 08 db 3d a2 15 cb be 51 d0 29 be
       0.0037374063 0.10695036 -0.39664942 -0.16583373
000170 c6 2a 30 be ce be ee 39 81 6a d4 be 2a b0 d1 3c
       -0.17203817 0.00045537058 -0.41487506 0.025596697
000180 df 1c 9c bd d3 22 d0 3d 6c b5 98 3e 54 09 ff be
       -0.07622694 0.10162892 0.29825914 -0.49811804
000190 da 68 8e 3e da bb 05 3c 14 06 4e be f5 37 ce bc
       0.2781437 0.008162463 -0.20119506 -0.025173167
0001a0 52 6b a5 be e7 86 7c be e3 88 e7 bf 1e 0f 2a 3c
       -0.3230844 -0.24660836 -1.808865 0.010379581
0001b0 e8 28 84 be 24 80 10 3e 21 ed 06 3d b5 5c 65 bf
       -0.2581246 0.14111382 0.032940987 -0.89594585
0001c0 b4 de 8b be ea d6 e2 be ab 97 14 bf 4d 2d cd 3e
       -0.27318347 -0.4430459 -0.58043927 0.40073624
0001d0 e5 0d 7c 3d 1c f3 3f be de ac 34 bf 33 dc 24 3f
       0.06153669 -0.18745083 -0.70576274 0.643985
0001e0 de d4 0d be 4c af 40 3d 0e 68 fe be 43 4a fe 3d
       -0.13850734 0.047042176 -0.49688762 0.12416508
0001f0 d7 d9 01 bd e5 ea a3 bd 52 f5 f9 bc 2b 0a 57 3d
       -0.03170189 -0.08003787 -0.030512486 0.05249993
000200 d9 d6 45 bc 51 60 c7 bc a7 e6 7e 3d 37 ed 7f bd
       -0.012075149 -0.02433792 0.062231686 -0.062482085
000210 ca 92 a9 bc 7b 11 ce be b0 44 24 3e 27 1d 1f bd
       -0.020699877 -0.40247712 0.16041827 -0.03884616
000220 b9 aa 0f 3f 2f 66 04 bd 99 8a a4 bf 00 77 96 be
       0.5611988 -0.032324012 -1.2854797 -0.29387665
000230 8e f1 f0 bd 55 8c 3a be 5e d0 a6 bf 3c d2 c0 3e
       -0.11764823 -0.18217595 -1.3032339 0.37660396
000240 ec d3 2b 3d fc a8 fe 3d 14 fb 0a 3e 5c c8 ca bc
       0.04195015 0.12434575 0.13572341 -0.024753742
000250 ef 91 47 bf 12 cd 52 3d df bc 3d bf 7b ce 89 3e
       -0.7795705 0.0514651 -0.7411632 0.26915345
000260 a9 de c7 be e9 8a 97 bd 9d 77 1d bd 3e 28 4d 3e
       -0.39037064 -0.07399542 -0.03844415 0.20034882
000270 16 97 d1 bd 4c f8 2a 3b 37 9b 23 bf cf 09 0c bd
       -0.102338955 0.0026087938 -0.63908714 -0.03418904
000280 13 b7 e5 bd bd 8d 39 bd d4 9e 36 bf 32 2b 02 bf
       -0.11216559 -0.045301188 -0.713361 -0.5084716
000290 1c 44 ea bd bc 6b aa be ef a3 f4 be 03 87 fe be
       -0.11438772 -0.3328532 -0.4778132 -0.4971238
0002a0 f9 0a e3 3e 93 31 2f 3e a3 8a 24 be 38 43 7d 3e
       0.4434431 0.17108755 -0.1606851 0.24732673
0002b0 66 b1 89 3c da 0d 61 3d 64 75 23 bd 04 e7 a2 bd
       0.016808223 0.05494485 -0.039906874 -0.07954219
0002c0 f1 dc 9f be bd 58 3a bd 91 9f 51 bd b9 b1 13 3c
       -0.31223252 -0.045494784 -0.051177565 0.00901454
0002d0 07 de 94 bd da dd 6e bf 4e 24 ff bd a5 3f b2 3d
       -0.07268911 -0.9330727 -0.124580964 0.087035455
0002e0 36 4f 89 3a 26 b9 be 3d 89 59 7a be ea 21 92 3d
       0.0010475877 0.09312658 -0.24448217 0.07135375
0002f0 64 84 0a be 32 13 98 be 10 03 13 be 7a 44 c6 3d
       -0.13527066 -0.29702145 -0.14356637 0.096810296
000300 21 bf 97 3c c6 bb 04 3f 70 9c 16 bf c2 3b 2e bd
       0.018523755 0.5184902 -0.58832455 -0.04253746
000310 72 d0 46 bf 25 4d d7 bd 68 84 3a be 3b 8d 03 bd
       -0.7766181 -0.10512761 -0.18214571 -0.03211711
000320 c0 e9 93 bd 10 5f 21 bf c6 1b 06 be 6d 2e d2 3e
       -0.07222319 -0.6303568 -0.13096532 0.41051045
000330 16 05 17 3e 82 2f 83 be 8e 62 3d 3d f0 66 0a 3d
       0.14748034 -0.25622183 0.046236567 0.033789575
000340 3f 51 21 bf fc a2 bc 3e f2 d5 82 bf ac 86 f9 bc
       -0.63014597 0.36843097 -1.0221541 -0.030459724
000350 e6 72 26 bb e2 4b c4 be bb 18 75 bc 0c ee 7e bf
       -0.0025398075 -0.38339144 -0.0149595095 -0.9958198
000360 13 e2 33 3c d4 4d 9c be 46 5a 0d bd 9e 6f 88 3e
       0.010979193 -0.30528128 -0.03450992 0.26647657
000370 8e 11 9c bc e6 21 f9 bc 64 5b 30 bf 47 41 f0 3e
       -0.01905134 -0.030411672 -0.6888945 0.46924803
000380 9f 4c 21 3d 25 8e d6 be 9f 77 22 be e4 ab 2b bf
       0.039379712 -0.41905323 -0.15865944 -0.6705916
000390 2d 93 12 be d4 34 9d be fd b8 46 be 6f 52 48 bf
       -0.14313956 -0.30704367 -0.19406505 -0.78250784
0003a0 91 cc 91 bf d8 22 d8 be 54 85 26 3e d3 db 9a be
       -1.1390554 -0.42214084 0.16261798 -0.30245838
0003b0 0b 29 2f 3e bf e3 81 3d d4 45 dd 3e d2 6d 69 bf
       0.171055 0.06342267 0.43217337 -0.911832
0003c0 e1 0b 1f bd 20 ff 9b be 07 97 91 be f9 63 4b be
       -0.038829688 -0.30468082 -0.28435537 -0.19862355
0003d0 d2 67 3a 3c f9 90 63 3d 8c a5 08 3d c1 44 e5 bc
       0.011377292 0.05555818 0.033361003 -0.027986886
0003e0 f8 e1 cc bd 07 dd 6e 3e db cf 8d 3d 65 1c 3c be
       -0.100040376 0.23326503 0.06924411 -0.18370207
0003f0 bb 9a bd 3e 7f a9 66 bc 28 b1 d9 be 44 b0 43 be
       0.37032112 -0.014078497 -0.42517972 -0.19110209

fc3.bias f4 [256]
000000 a1 38 20 3e cd 43 b2 be b4 2a 33 be f6 92 10 3e
       0.15646602 -0.34817353 -0.17496759 0.14118561
000010 0c 76 74 be d6 af 85 3d 73 cf 4d 3e c9 90 ba 3d
       -0.23873156 0.06527679 0.20098667 0.09109647
000020 fe 3a d7 bd 1d ed 26 bf 60 e4 3a 3e 4c e2 32 bf
       -0.10509299 -0.65205556 0.1825118 -0.6987655
000030 59 5c 48 be bb 58 0c be 7e e0 b3 be 52 a0 76 bd
       -0.19566478 -0.13705723 -0.3513221 -0.060211487
000040 8e 66 30 bf c3 78 02 3f 32 01 10 be ef 5a 8f 3e
       -0.68906486 0.5096552 -0.14062956 0.27999064
000050 c2 be bb bd c6 42 f4 3c 7b 6b cd bd 83 01 95 3e
       -0.091672435 0.029816996 -0.10030266 0.29102716
000060 00 42 fe bc 4d 2d 03 be 62 f8 c8 3d 76 42 91 be
       -0.03103733 -0.1281025 0.09813 -0.28371018
000070 57 61 43 3d 53 08 b0 be f0 b1 05 3f 23 e5 ff bd
       0.047700252 -0.3438135 0.52224636 -0.12494876
000080 8c 8e 14 bd fa 6d 74 be d7 89 7d bf c4 30 2c be
       -0.036268756 -0.23870078 -0.9903845 -0.16815478
000090 0d 6a 24 be 68 40 54 bd fb dc 5f 3d f0 6e 27 be
       -0.1605608 -0.051819235 0.054654103 -0.16350913
0000a0 9e 7c f0 be 68 f5 56 3e 92 cd 48 3d f3 61 1c 3d
       -0.46970075 0.20992053 0.049024172 0.03817935
0000b0 68 79 ff bd a3 a6 88 3e a6 f0 a7 bd 69 f5 f1 bd
       -0.12474328 0.26689634 -0.08200197 -0.118143864
0000c0 34 48 a7 3e 57 e4 ae 3e c1 b2 72 bf ad 27 9e be
       0.32672274 0.34158584 -0.94804007 -0.30889645
0000d0 5e f4 9e be 28 49 0f bf 02 97 02 be 95 d3 56 bf
       -0.31045812 -0.55971 -0.12752917 -0.839166
0000e0 d7 e9 2f 3e 40 e1 88 3e 3d cd f0 3e 59 f1 98 be
       0.17179047 0.26734352 0.47031584 -0.29871634
0000f0 b4 0d a9 bd 6c 0e 75 be 8f db d8 3e 07 d5 d6 be
       -0.08254567 -0.23931283 0.4235501 -0.41959402
000100 e0 37 a2 be 0f 5b cb bd a9 39 05 be 4a 4c db 3d
       -0.31683254 -0.099294774 -0.13010277 0.1070791
000110 a3 b8 e5 bd 9a b8 81 be 1b 00 43 be e8 62 59 3e
       -0.11216857 -0.25336152 -0.19043009 0.21229136
000120 56 c2 50 be 58 3d 80 3e 43 b7 2b bf 1f fc 97 3e
       -0.20386633 0.25046802 -0.6707651 0.2968454
000130 aa 3a a3 be 13 39 0d 3d 72 8a bb bd 39 21 c2 3e
       -0.31880695 0.03447826 -0.09157266 0.37915972
000140 bc 73 22 bf d3 43 d0 3e ec 34 c5 be f2 ab 33 be
       -0.63457847 0.40676746 -0.3851694 -0.1754606
000150 b4 c1 07 be ed c0 a4 3e dd e6 9f bd cf 78 a8 bd
       -0.13257486 0.3217844 -0.078077056 -0.082261674
000160 26 9a ca be 9d 73 74 bd ad e3 85 be 76 41 19 3d
       -0.3957073 -0.05968057 -0.26150265 0.037415944
000170 bf eb 34 be 54 f7 50 3e a1 db c0 3e ac 0e 91 3e
       -0.17668055 0.20406848 0.37667564 0.28331506
000180 cc 87 3a be 88 90 5a bd 32 79 99 3d 0c 67 98 be
       -0.18215865 -0.053360492 0.07493819 -0.2976612
000190 71 cc 49 be ef 92 c2 be 23 e8 aa 3e 97 c7 c9 3e
       -0.19706894 -0.38002726 0.3338023 0.39410087
0001a0 fe 87 0b be 85 bc 97 3e 7a db 16 bd 61 4c 73 be
       -0.13626096 0.29636016 -0.036830403 -0.23759605
0001b0 36 f7 da bd 8c 2e a6 bd 10 e2 0b be 8a 2a 9b 3e
       -0.10691683 -0.08114347 -0.13660455 0.30305892
0001c0 0e ea 42 bd 3e 84 b4 bd 4b 8f b9 be 41 aa f7 bd
       -0.047586493 -0.08814286 -0.36242136 -0.1209302
0001d0 bf 3a 04 be be a5 fe 3d df f8 72 be 53 48 75 bd
       -0.12913035 0.124339566 -0.2372775 -0.059883427
0001e0 62 b8 dc 3e 6d 3a 2e 3f 6c dd 72 3e f6 f1 4b be
       0.43109423 0.680579 0.23717278 -0.1991652
0001f0 7c e2 0e be f0 c8 b9 be 54 93 4e be 54 aa a1 be
       -0.13953584 -0.36286116 -0.20173389 -0.31575263
000200 96 a3 e2 be a7 16 fe be 08 48 db 3a 61 cb fd be
       -0.4426543 -0.49626657 0.0016729841 -0.49569228
000210 2e a6 5c bd ad f0 c7 bd 6a 60 19 3e f5 05 95 3e
       -0.05386942 -0.09762702 0.14978185 0.29106107
000220 f0 f5 c7 3d fd 39 48 bf 4c 0d 72 bd 88 9b 94 3e
       0.09763706 -0.78213483 -0.059094712 0.2902491
000230 66 cd 24 be 23 e8 9b be 78 53 02 be a0 c6 40 be
       -0.16093978 -0.30450544 -0.12727153 -0.1882577
000240 bb 5e a4 3e 0c c2 a1 be e4 0b 0f be 0b b6 f4 be
       0.32103524 -0.3159336 -0.1396938 -0.47795138
000250 96 07 ec 3e 92 20 af be 13 38 a3 be 19 ca 26 bd
       0.46099538 -0.34204537 -0.3187872 -0.04072008
000260 aa 56 96 3e c9 8b 08 be f0 fb 45 be 15 a2 e1 bd
       0.29362994 -0.13334574 -0.19334388 -0.11017243
000270 5c 33 c5 be e4 0b a2 bd a5 93 42 be 37 0e fd be
       -0.38515747 -0.07912424 -0.19001634 -0.49424908
000280 4e 41 ad 3e c0 9b c2 be 6b 6d 16 bf 81 6e 27 bf
       0.33838886 -0.38009453 -0.5876071 -0.6540299
000290 37 5d 49 be ef b1 be be 13 1d 12 bd 2c 12 f8 3e
       -0.19664465 -0.37245128 -0.03567226 0.48451364
0002a0 2f 5c ee 3e 3f 93 95 3e 9b 0b 87 3e a7 ef d8 be
       0.46554706 0.29213902 0.26376042 -0.4237034
0002b0 58 74 2d 3e 27 3e 05 3d df 91 b0 3e be 15 79 be
       0.16938913 0.032529976 0.3448629 -0.243247
0002c0 28 9c 1c bc 73 da 0a 3f be 53 46 3e 74 29 8e 3d
       -0.009558715 0.5423958 0.19367883 0.069415
0002d0 51 58 42 be 89 bb b3 3c a0 3b 53 be fb c1 31 3f
       -0.18979003 0.02194001 -0.20628214 0.69436616
0002e0 b6 de f3 3e 25 b5 0c 3f 7f 81 bd 3d f1 f5 81 3e
       0.47630852 0.54963905 0.09253215 0.2538295
0002f0 c0 f4 ee bc c3 be 88 be c4 e0 ab be e2 d2 4c be
       -0.02916944 -0.2670804 -0.3356992 -0.2000232
000300 0b 2c 3a be a6 f1 71 3e 9e 74 b7 bd c2 1c ff 3e
       -0.18180864 0.23627338 -0.0895779 0.49826628
000310 cd 6f 53 3e 83 2b 1e bf c4 10 03 3e 92 ca 02 bf
       0.20648117 -0.61785144 0.12799364 -0.5109035
000320 d5 28 ec 3d 76 0c d1 be 27 9e d3 3e 57 d1 df bd
       0.115312256 -0.4082982 0.41331598 -0.109286
000330 c9 86 99 be 48 3a 27 be 3d 40 50 3e 36 6a f5 bd
       -0.29985645 -0.16330826 0.20337005 -0.11983149
000340 32 3f 24 bd c7 3b 1c bf 09 0a 44 bf ed e8 8e be
       -0.04009933 -0.61028713 -0.7657781 -0.27912083
000350 c1 0e dd 3d dd 02 34 3d 37 d1 0a bf 0e e3 71 be
       0.1079383 0.043948043 -0.54225487 -0.2362177
000360 8e 0a 3a bf ca de d4 3e 7b a6 0a 3f ad 29 00 be
       -0.72672355 0.41576225 0.5416028 -0.12515898
000370 81 11 be 3e d0 e7 e7 be ed fb 25 3f a1 ca b3 3e
       0.3712273 -0.45294046 0.64837533 0.3511553
000380 78 f2 c9 bc 68 66 1e 3e 85 3a 4a 3e 08 1a 1d be
       -0.02465175 0.15468752 0.19748886 -0.15341961
000390 16 a9 4f 3e 71 48 39 bf 3f 57 ef be 5a 41 35 be
       0.20279345 -0.7237616 -0.4674625 -0.17700711
0003a0 0c 54 45 3d cb c1 9b 3e 3b e5 1f be 93 5e 60 be
       0.048175856 0.3042129 -0.15614788 -0.21911077
0003b0 f6 ac e4 bd ee a8 0f ba d4 22 e9 bc b5 cf db be
       -0.11165802 -0.00054801896 -0.02845899 -0.42931905
0003c0 56 bd 05 bf 3a bb 2e be 5c 15 98 bd 17 fc 51 bf
       -0.5224203 -0.17063609 -0.07425949 -0.82025284
0003d0 56 f2 c4 3d ae 47 0f 3e a7 22 e3 bd c2 a4 8f be
       0.096165344 0.13992187 -0.11090594 -0.28055388
0003e0 cc 79 59 bd 22 e5 64 be bb a5 81 be 3e 1b 17 be
       -0.05309467 -0.22353032 -0.25321755 -0.14756486
0003f0 6b e7 3a bf 96 f3 14 3e a4 54 ac 3d 59 80 e2 3e
       -0.73009366 0.14546046 0.084145814 0.44238546

output.weight f4 [4, 256]
000000 5a ec d1 bc 8f 25 d9 3d cd 3e a1 3a c6 1f 11 be
       -0.025625397 0.10602867 0.0012302041 -0.14172277
000010 a2 3c 83 bd 17 e2 75 3c ac bd e9 3e f5 c9 a4 3c
       -0.06408049 0.015007517 0.4565252 0.020115832
000020 09 9a 5e 3d dc 40 c6 3d 6e 79 23 3d a0 11 0a bd
       0.054346118 0.0968034 0.039910726 -0.033708215
000030 fc 07 3f bd 3c fc c2 3d 03 81 a7 bb 56 7b cf bc
       -0.046638474 0.09520766 -0.005111815 -0.025327366
000040 b5 c6 92 bc e4 a1 d1 bb 14 8e 93 bd a3 06 1f 3d
       -0.017917017 -0.0063974727 -0.072048336 0.03882469
000050 a4 25 2c 3d e4 fa 72 bc d2 55 60 3d 3f 4a 9b 3d
       0.042028084 -0.014830325 0.054769345 0.07582521
000060 e2 b1 9c 3e 7b eb 94 3c 6a b1 b0 bc 25 87 61 3e
       0.30604464 0.018178692 -0.021568973 0.2202421
000070 01 0c e7 bc cc e7 e8 bb 06 ef aa 3d 30 39 1e bd
       -0.028203966 -0.0071077105 0.08346371 -0.038628757
000080 ce 7d 90 bb 57 00 71 3c 13 40 52 bf 75 54 de bc
       -0.0044095283 0.014709554 -0.8212902 -0.027139882
000090 08 96 55 bd 12 d9 df 3d 6c a1 e4 bd 55 ce e5 be
       -0.052145034 0.10930075 -0.11163601 -0.4488398
0000a0 98 a1 57 be 2b 7c 88 3d 20 ed 0f 3c 88 04 33 3d
       -0.21057737 0.06664308 0.008784562 0.043705493
0000b0 22 e0 21 3d 2d 8f 8f 3c 74 1e 45 bd aa c5 cb bc
       0.03952039 0.017524326 -0.048124745 -0.024874527
0000c0 3e c1 00 3e 04 d8 eb bb ac d3 0e 3f fa 49 f8 bc
       0.12573716 -0.007197382 0.55791736 -0.030308712
0000d0 0f 9f d8 bd 4f 72 ac 3e 05 a4 7a bc b3 d5 fc 3b
       -0.10577213 0.3368096 -0.015297894 0.0077159046
0000e0 16 6e 70 3d 42 52 d1 bc 0f 8d 3d 3b 74 60 05 3d
       0.058698736 -0.025551919 0.0028923189 0.032562688
0000f0 76 ef 55 3c d2 c9 f4 3e d2 af f0 bd 32 50 3a bd
       0.01305758 0.47810227 -0.11752285 -0.045486636
000100 ba e6 2c be c6 2a 6c bb b2 a3 0d 3d d9 00 76 3b
       -0.1688489 -0.0036036237 0.03457994 0.0037537126
000110 23 b5 aa 3d 7c f7 ab 38 4c 57 23 bc f2 6a 58 3d
       0.0833533 8.200013e-05 -0.009969544 0.052836366
000120 da 7e 37 bf 88 f8 f2 3e c7 73 29 be 07 8e 1a be
       -0.71677935 0.4745524 -0.16548072 -0.15093242
000130 de 59 bd ba 98 1b e0 bb a3 61 8f bd 9a 07 39 3e
       -0.0014446338 -0.006839227 -0.070010446 0.18069306
000140 67 24 0c c0 4d 5d d5 bd c5 00 2b be 88 38 09 bc
       -2.1897218 -0.10418186 -0.16699512 -0.0083752945
000150 41 af ef be 66 21 f3 3c cb 73 a7 bd c4 3a de 3c
       -0.46813396 0.029679012 -0.08176383 0.027127631
000160 b6 3a 02 3d d5 68 aa bd 01 c3 4f be f1 34 85 3d
       0.031794272 -0.083207764 -0.20289232 0.065042384
000170 ef e3 02 3e cf c3 6b 3d 06 44 c6 be 86 32 23 3d
       0.12782262 0.057559785 -0.38723773 0.039843105
000180 7a d9 2c bd f6 71 84 bd db c5 b2 3e e1 0d 8d 3c
       -0.04219959 -0.06467049 0.34916577 0.017218532
000190 5d f1 9c bd bc 8d 4b 3e 72 c3 9b bd 09 c2 60 3c
       -0.07663224 0.19878286 -0.076056376 0.013718137
0001a0 6d ed 48 bd ac b9 02 3c 8d ab 0e 3f bf 48 a9 3d
       -0.049054552 0.007978838 0.55730516 0.08265828
0001b0 12 3d dd bb c2 2a 8c 3c 3b 13 14 3c 99 bd a2 bd
       -0.006751665 0.017110232 0.009037788 -0.07946319
0001c0 f1 63 fe 3d de a6 17 3e b3 67 3a be 39 70 86 bc
       0.12421406 0.14809749 -0.1820362 -0.016410934
0001d0 bd 25 36 3d 16 2b 20 3d d2 9d 22 bd 1a bf 71 bc
       0.044469584 0.03910359 -0.03970129 -0.014755035
0001e0 91 7b 8d be 26 e2 63 3c ee 34 4d bd 7e 22 a9 3d
       -0.27633336 0.013908898 -0.050099306 0.08258532
0001f0 95 d8 16 3e 4f 2a 85 bc 37 8d 67 be 6a 8b a6 bd
       0.14731057 -0.016255526 -0.22612463 -0.0813206
000200 57 42 51 bf 8f 65 be bd 80 41 54 3b 77 76 28 3d
       -0.8174185 -0.092967145 0.0032387674 0.041128602
000210 18 bc 54 bd c1 e4 bc 3d 46 4c fb bb c4 ee 22 be
       -0.051937193 0.09223319 -0.0076690046 -0.15911394
000220 73 23 8b bc 54 c9 f1 bc 52 13 dc ba ce 25 34 3d
       -0.016984677 -0.029514946 -0.0016790426 0.043981366
000230 8c 10 88 3b 9e 21 ec 3c 4e f1 23 3e 33 42 09 bd
       0.004152363 0.028824624 0.16010019 -0.033510398
000240 ae 4b 5d bb 0d 8a c3 3c b3 46 4b bd 91 b1 15 3e
       -0.0033767032 0.023869539 -0.04962797 0.14618517
000250 d4 a3 40 3e 4c 5b 20 3c e2 11 25 3e 25 e2 c5 3e
       0.18812495 0.009787392 0.16120103 0.38649097
000260 a2 03 0b 3e 56 84 e4 3b 44 74 17 bf 02 7d 47 bf
       0.13575605 0.0069737835 -0.5916178 -0.7792512
000270 6d 89 a4 bd e0 2d 66 3c cc f7 b4 bc 77 57 92 bd
       -0.080340244 0.014049023 -0.022090815 -0.07145589
000280 26 eb 22 3e 05 39 83 bb 14 3d 1a bc 87 d5 95 bd
       0.15910015 -0.0040046 -0.009413976 -0.07316118
000290 b4 f5 72 bc 5c 88 29 39 b0 31 7d 3e ee 4f 17 be
       -0.014829088 0.00016167894 0.24725986 -0.14776585
0002a0 c7 ff 3e 3c 0a 09 15 bd 24 54 50 bd ad 62 51 bc
       0.011657662 -0.036385573 -0.050861493 -0.012779874
0002b0 33 00 68 bd f5 08 35 3e 7a 28 65 bc 68 3b b6 bc
       -0.056640815 0.17679198 -0.013986701 -0.022245124
0002c0 25 c5 e5 3b fd 4b 89 bd ca cb 15 3e f3 e4 4e 3c
       0.007012027 -0.06703947 0.1462852 0.012627828
0002d0 25 a5 0c bb 16 ed 0c bc f3 2a f6 bc cd 4e de bd
       -0.0021460738 -0.008601448 -0.030049777 -0.10854874
0002e0 03 78 9d 3c d3 6d 25 bc e4 24 e7 3d 53 db 8d be
       0.019222265 -0.010096985 0.11286333 -0.27706394
0002f0 61 88 38 bd bf 54 85 3d 2b 04 b6 bd 66 28 c9 bc
       -0.045051936 0.06510305 -0.08887514 -0.024555396
000300 99 9d 51 3d 95 b4 43 bc 6d e8 0b be 4b 48 bd 3d
       0.051175687 -0.01194491 -0.13662882 0.092423044
000310 82 53 ca 3d 7b 45 35 40 69 47 97 3d d6 b1 85 bf
       0.09879209 2.8323658 0.07386667 -1.0444896
000320 fc 95 93 bc 68 37 93 3c f5 d6 a8 3d f3 d5 36 bb
       -0.018015854 0.017970756 0.08244125 -0.002789852
000330 f9 e1 76 bd dd 07 c1 bd 5b 3b 13 bd d2 d6 78 3d
       -0.060274098 -0.09425328 -0.035945278 0.060751744
000340 2d f6 0c be 9f 60 24 3c 95 cc bd 3c b8 b1 d6 3b
       -0.13765784 0.010032802 0.023168841 0.0065519474
000350 f8 98 bf bc 87 ec a4 bc 3d f2 87 3f 80 02 0a bd
       -0.02338837 -0.020132316 1.06208 -0.03369379
000360 04 ff 2e bd 5f f2 b2 bd e4 9f 30 bd 44 50 00 bd
       -0.04272367 -0.08737635 -0.043121234 -0.031326547
000370 76 ac 33 bd aa 68 d6 bd 7c be ac bc 82 7e 77 bb
       -0.043865643 -0.10469182 -0.021086924 -0.0037764614
000380 b8 4c a9 bd e8 86 9a 3c c4 54 c3 3c 26 7a 57 3d
       -0.08266586 0.018863156 0.02384413 0.052606724
000390 69 c3 a5 3c 53 ec ae 3e 0a 1c f2 3a 7b 02 64 3e
       0.02023478 0.34164676 0.0018471491 0.22266571
0003a0 a8 f4 c8 3c 20 a4 c4 bc 8e d4 64 3d 92 17 56 3d
       0.024530724 -0.024004042 0.05586677 0.052268572
0003b0 74 1d 88 3d 26 89 df bc 9b dd 18 3d ec a0 30 3f
       0.06646243 -0.027287077 0.037320714 0.6899555
0003c0 44 e7 79 bd b8 09 26 bd 66 df 6f 3c 20 59 32 3f
       -0.061011568 -0.040536612 0.014640665 0.69667244
0003d0 ef b2 9b 3d 35 80 8b bd ea ab dd ba 1c b5 a2 3b
       0.07602488 -0.06811563 -0.0016912196 0.0049654376
0003e0 1f e8 a2 3c d6 19 80 bd 33 d0 c1 3c 90 a2 9c 3e
       0.019886075 -0.06254928 0.023658847 0.30592775
0003f0 90 35 8e 3c 61 f8 fc 3c d3 1d 59 3c 02 f2 c5 3d
       0.017359525 0.030880155 0.01325174 0.096653

output.bias f4 [4]
000000 b1 f9 2d 3c 2b f5 00 3c 0f 10 96 bc 54 b6 56 bc
       0.010618613 0.007870953 -0.018318204 -0.013104994
